custom_example/lora/Taylor_Swift/step_inv_1000.safetensors (safetensors, 4224 bytes, 1 tensors)

<Taylor_Swift> f4 [1024]
0	0xbc07cd40	-0.0082886815
1	0x3c3341c5	0.010940974
2	0x3c544043	0.012954774
3	0xbc86d3bb	-0.016458383
4	0x3c16191f	0.009161263
5	0xbbd44f74	-0.006479198
6	0xbbdc39d7	-0.0067207622
7	0x3c36b540	0.011151612
8	0x3bdb2627	0.0066878977
9	0x3cc3a055	0.023880163
10	0xbc9496e3	-0.018138355
11	0xbcb9eb66	-0.022695255
12	0xbba399f3	-0.0049927174
13	0x3c864dfa	0.016394604
14	0x3c0d8b4a	0.008639166
15	0xbd042dce	-0.032270245
16	0x3a8c85b4	0.0010720999
17	0xbbd73340	-0.006567389
18	0x3aa9cc01	0.0012954475
19	0x3b2a90af	0.002602618
20	0x3ccf4e9e	0.025306042
21	0xbc06967b	-0.008214588
22	0x3c4d5f17	0.012534878
23	0x3bf45872	0.0074568326
24	0xbbbd4d0a	-0.005777006
25	0xba3f7400	-0.0007303357
26	0x3c074ed5	0.008258541
27	0x3b8190f7	0.0039540487
28	0xb9b3fb7b	-0.00034328908
29	0x3c28b408	0.010296829
30	0x3c81a77b	0.015826931
31	0xbc8c0977	-0.017094357
32	0x3c3ee271	0.0116506675
33	0xbc411192	-0.011783974
34	0xbc0f7616	-0.008756181
35	0x3c35b49a	0.011090422
36	0xbc62bb21	-0.01383856
37	0x3cd0bffe	0.025482174
38	0xbc6a12a3	-0.01428667
39	0xbc0a11d1	-0.008427099
40	0xbb1c08ee	-0.0023809033
41	0x3c05515a	0.0081370715
42	0x3c83f680	0.016108751
43	0x3be81cc2	0.0070835063
44	0x3c92cc92	0.017919812
45	0xbc8ffe9e	-0.017577466
46	0xbc3dd6d0	-0.01158686
47	0xb952c5ae	-0.00020100802
48	0xbb9ec712	-0.0048455084
49	0xba009e80	-0.0004906431
50	0xbc97bddf	-0.018523155
51	0x3c7e487a	0.015520209
52	0xbb1135cd	-0.0022157312
53	0x3b40b349	0.0029403737
54	0x3c3570e4	0.0110742785
55	0x3a363d46	0.00069518795
56	0xbbdf6961	-0.006817982
57	0xba882668	-0.0010387423
58	0x3ccfc69b	0.025363257
59	0xbc328401	-0.01089573
60	0x3b2008da	0.0024419338
61	0x3ca694bb	0.020334592
62	0x3c973574	0.018458106
63	0x3c486fc1	0.012233675
64	0xbcbac770	-0.022800177
65	0xbbe803ad	-0.0070805163
66	0x3ca7be29	0.020476418
67	0xbc79bd0f	-0.015242829
68	0xbc39de24	-0.011344466
69	0xbc4b5b1c	-0.012411859
70	0x3ba67752	0.005080142
71	0x3c0edfe9	0.0087203765
72	0xbc03097c	-0.007997867
73	0x3c11f1de	0.008907763
74	0x3c50c32c	0.012741845
75	0x3c525943	0.012838664
76	0x3c5e7f47	0.01358015
77	0xbb9eb806	-0.0048437146
78	0xbc8e572a	-0.017375547
79	0x3bb3c8da	0.00548659
80	0x3b93da7d	0.00451213
81	0xba96c183	-0.0011501763
82	0x3cbb59b8	0.02286993
83	0x3b832a83	0.0040028705
84	0x3ce719cf	0.028210549
85	0xbbd7750f	-0.006575234
86	0xba8d7c44	-0.001079448
87	0xbbd7a6c3	-0.006581159
88	0x3ba93094	0.0051632617
89	0xbac7b084	-0.0015235101
90	0x3c2f45c0	0.010697782
91	0x3ca8a242	0.020585183
92	0xbc81f0ae	-0.015861835
93	0x3b815525	0.0039469176
94	0x3c8eade6	0.017416906
95	0xbc2935a7	-0.010327733
96	0x3bbe0d93	0.005799958
97	0x3c5e643a	0.013573701
98	0xbc8bbe2a	-0.01705845
99	0xbc528658	-0.012849413
100	0x3c5c0ff5	0.013431539
101	0xbc8ccf84	-0.017188795
102	0xbc783330	-0.015148923
103	0xbcb9531d	-0.02262264
104	0x3cb3df98	0.021957204
105	0xbb955707	-0.0045574936
106	0xba375d28	-0.00069947774
107	0x3c8e647f	0.017381905
108	0xbc0df6b1	-0.008664773
109	0x3c2c53c7	0.010518021
110	0xbc8fc687	-0.01755072
111	0xb9d4148e	-0.00040451105
112	0x3b7003a7	0.003662327
113	0x3c75fba7	0.015013612
114	0xb7a04ee1	-1.9110217e-05
115	0x3c014bf7	0.007891647
116	0xbb009384	-0.0019619176
117	0x3cb0bd09	0.021574514
118	0xbc3fd165	-0.011707638
119	0x3c24e212	0.010063665
120	0xba992a49	-0.0011685576
121	0xbc6f43ed	-0.014603597
122	0xbb74dbfc	-0.0037362566
123	0x3b6bbc66	0.0035970449
124	0x3c7e8d7b	0.015536661
125	0x3b84623d	0.004040031
126	0xbc21ee50	-0.009883478
127	0x3c47dc3a	0.012198502
128	0x3bad2f87	0.0052852067
129	0x3c0ec904	0.008714918
130	0x3ba059f1	0.0048935344
131	0x3c4bcdb0	0.012439176
132	0xbcb2e3b0	-0.021837085
133	0x3c01f2c3	0.007931414
134	0x3adc8b82	0.0016826245
135	0x3c25ca42	0.010119023
136	0x3cb06bee	0.02153584
137	0xbc210964	-0.009828899
138	0x39e533c9	0.00043716867
139	0xbc98cbdc	-0.018651895
140	0xbbdddcc1	-0.0067707007
141	0xbbebda4b	-0.0071976534
142	0x3c9a38ab	0.01882585
143	0xbd269b74	-0.040675595
144	0x3ac1f04e	0.0014796348
145	0x3b31d823	0.0027136884
146	0x3c1a5961	0.009420724
147	0x3c30933d	0.010777292
148	0x3c9c4ef2	0.019080613
149	0xbb934128	-0.004493851
150	0xbcae0bd7	-0.02124588
151	0x3bfbb038	0.007680919
152	0x3c31363c	0.010816153
153	0xbc2edfac	-0.010673445
154	0xbc08e87c	-0.00835621
155	0x3bc0b08e	0.005880422
156	0x3ba5b4b1	0.0050569405
157	0x3a1b2807	0.00059187453
158	0xbc7c5ec9	-0.015403458
159	0xbc8bf3ab	-0.017083963
160	0x3cded68d	0.027201915
161	0xbc090ac7	-0.008364386
162	0xbc48f9bc	-0.012266573
163	0xbae81ef6	-0.0017709422
164	0xba9af308	-0.0011821697
165	0xbbda8aa9	-0.0066693616
166	0xbc219964	-0.009863231
167	0x3c39419b	0.0113071455
168	0xbc7ab0f0	-0.015300974
169	0xba9a020c	-0.0011749878
170	0x3b82e851	0.0039949794
171	0xbc97e14d	-0.018540049
172	0xbc4aaaf8	-0.012369864
173	0xba2e6a21	-0.00066533877
174	0xbb052b59	-0.0020320027
175	0xbc43993c	-0.011938389
176	0x3bea37bb	0.007147757
177	0x3b96b2a4	0.0045989323
178	0xbbcb3ab5	-0.006202067
179	0xbcabdd5d	-0.020979578
180	0xbaaf27d5	-0.0013363311
181	0x3994f529	0.00028411418
182	0x3b97d4af	0.004633508
183	0xbc146edd	-0.009059635
184	0x3c9e1a25	0.019299576
185	0xba4f5cec	-0.000791027
186	0x3c1b1e9d	0.009467748
187	0x3b068625	0.0020526734
188	0x3c53d30e	0.012928737
189	0xbc8c46b6	-0.017123561
190	0x3ab0db79	0.0013493142
191	0x3c674b66	0.0141170975
192	0x3b9cf61e	0.0047900816
193	0xbb82b3d2	-0.0039887214
194	0xbc0e129a	-0.008671427
195	0xbcc25122	-0.023720328
196	0x39eebccc	0.00045535562
197	0xbc695061	-0.014240355
198	0xbceeafcc	-0.02913656
199	0x3c9c272e	0.019061651
200	0xbb3eee74	-0.0029133828
201	0xbc069921	-0.00821522
202	0xba80be94	-0.0009822422
203	0x3b388248	0.0028153826
204	0xbbe5e5e1	-0.007015929
205	0x3c6b4787	0.014360315
206	0xbcba0ca9	-0.022711115
207	0x3c7795b7	0.015111378
208	0xbbdd62cf	-0.0067561637
209	0xbbfd8adc	-0.0077375006
210	0xb9c889d2	-0.00038249657
211	0xbab43fa2	-0.0013751874
212	0x3ab07851	0.0013463591
213	0xbbc16847	-0.0059023234
214	0xbc0d554d	-0.008626294
215	0xbbd7c816	-0.0065851314
216	0xbc3f8fec	-0.0116920285
217	0x396e37cf	0.00022718239
218	0x3ca181ff	0.019715307
219	0xbb00a70b	-0.0019630815
220	0xb902f995	-0.00012490743
221	0xbc1244fa	-0.008927578
222	0xbb821061	-0.0039692377
223	0x3c63e37b	0.013909216
224	0x3ba16d7c	0.0049263816
225	0x38071e3b	3.2214662e-05
226	0x3c1f0f16	0.009708187
227	0xbc82d81f	-0.015972195
228	0xba5e78f8	-0.00084866537
229	0x3bd7c598	0.0065848343
230	0x3c92b09e	0.017906483
231	0x3c2983e0	0.010346383
232	0x3ca6adb4	0.0203465
233	0xbac75cd4	-0.001521016
234	0x3b936319	0.0044978973
235	0x3c3a779e	0.011381058
236	0xbaa5cdfa	-0.0012649887
237	0x3a907db6	0.0011023793
238	0x39f7ea1a	0.0004728593
239	0xba85d715	-0.0010211194
240	0xbc028114	-0.007965345
241	0xbca566cc	-0.020190619
242	0xbc5afc47	-0.013365812
243	0xba2a3bc6	-0.0006493892
244	0x3c1cccdb	0.009570326
245	0x3c811dfb	0.015761366
246	0xbbd7d482	-0.006586612
247	0x38e22230	0.00010782888
248	0x3bee6b7b	0.0072759963
249	0x3aec87b0	0.0018045809
250	0xbb979547	-0.0046259495
251	0xbb8d4627	-0.0043113413
252	0x3a700ba8	0.00091570104
253	0xbb8a4758	-0.0042199306
254	0xbc4f2d20	-0.012645036
255	0xbac11a6a	-0.0014732603
